models/fashion-mnist.pth (torch, 113799 bytes, 6 tensors)

network.0.weight f4 [32, 784]
-0.0011234985 -0.0006220944 -0.00248306 -0.028005565 -0.028973814 -0.045172 -0.025742598 0.064073406
0.19067138 0.18307906 -0.19631676 -0.22233953 -0.12621559 -0.23352033 -0.23909049 -0.20459042
-0.276284 -0.04137919 0.121475525 0.07443968 0.111168146 0.058671016 0.021696255 0.0036499007
-0.021207359 0.0047822 0.0079303635 -0.0017843863 0.00011890881 0.0007416876 -0.041581117 -0.059950944
-0.060554776 -0.064066395 0.001865085 0.031183533 -0.20408228 0.030845623 0.0012434187 0.1839422
0.055445917 0.26831368 0.08033011 0.10804001 0.075787656 0.17385492 0.11722931 -0.10672397
-0.09762599 0.06465587 0.06891748 0.157255 0.007915208 0.01401825 0.020947356 0.009878635
-0.00012041321 -8.262389e-05 -0.05169745 -0.07022277 -0.10576399 -0.16542888 -0.110444665 0.00528186
0.009822954 0.20261861 0.024727352 0.025629023 0.01989185 0.090901196 0.10147936 -0.022349926
-0.023944836 0.21412212 0.21248806 0.041065536 -0.08218152 -0.18550447 0.027128434 -0.057909954
-0.013902844 0.07946665 -0.0002242878 0.00021730707 -0.00013272856 -0.0013765852 -0.048850864 -0.116065666
-0.1933372 -0.16497023 0.2416042 0.12800239 -0.043594684 -0.12107987 -0.05649196 -0.010851256
-0.012856195 -0.021276992 -0.03226785 -0.11337954 -0.07468814 0.07548426 0.06597161 -0.21472406
-0.013599685 0.048212808 0.041235324 0.041103836 0.07362022 0.058956783 -0.020721504 -0.012160594
-0.0036711188 -0.03718842 -0.050420806 -0.14452088 -0.2103496 0.027969096 0.14973901 -0.10665771
-0.16626677 -0.043218255 0.13738304 0.08894185 -0.15330853 -0.19126195 -0.2968276 -0.068241276
-0.079987094 0.17396227 0.10851686 -0.023142362 0.023462323 0.07616602 0.1501634 0.2288588
0.12353865 -0.008074427 -0.07729912 0.0024421692 -0.0044300295 -0.069181 -0.05208854 -0.13206623
-0.050316412 0.06688396 0.17972594 -0.037104946 -0.054371774 -0.09090903 0.041994095 0.056362912
0.03785121 -0.07673721 0.041769262 0.046161566 -0.14091606 0.16796313 0.20603043 -0.011797548
0.074570596 0.22584715 0.10864113 0.234462 -0.020841617 -0.18115684 -0.03226981 0.0069617946
-0.00651973 -0.06703699 -0.048612017 -0.12366707 -0.13291977 0.104090855 0.19403665 0.08975172
-0.017515376 -0.19650878 -0.14294583 -0.099890865 0.02346243 0.006510253 -0.043184828 0.0025564756
-0.020040773 -0.027819008 0.046217553 -0.0006298648 0.028095054 0.16726339 0.104602784 0.07082938
-0.112894826 -0.04222218 0.1040185 0.060032405 -0.0027384863 -0.048770543 -0.09564428 -0.074593164
-0.2198476 0.02202014 0.2063106 0.12301079 -0.0797712 -0.23430507 -0.19367102 -0.21036024
-0.04854978 -0.057178166 -0.490988 -0.15125225 -0.09927065 -0.100472875 0.08867037 0.26251343
0.24927306 0.16945973 0.19723037 -0.048266467 -0.17719498 0.18115892 0.18885937 -0.022850337
-0.0041151494 -0.0034335623 -0.10393639 -0.11148397 -0.114574775 -0.024943624 0.09765389 0.24542446
-0.07058855 -0.2396562 -0.23948252 -0.15814319 -0.06081194 -0.23740935 -0.3537728 -0.12709233
-0.089360796 -0.1674344 -0.08416102 0.079604074 0.21842945 0.28382683 0.16264826 -0.07178438
-0.04245655 -0.06056287 0.19182062 0.018435117 -0.0070506507 -0.023985203 -0.06042659 -0.105650626
00000000: 5b42 93ba 0c14 23ba d5ba 22bb ed6b e5bc
00000010: 7e5a edbc 4606 39bd 24e2 d2bc eb38 833d
00000020: 5c3f 433e 1479 3b3e 4307 49be f9ac 63be
00000030: a93e 01be f41f 6fbe 23d4 74be 2780 51be
00000040: 1975 8dbe 3a7d 29bd 29c8 f83d d573 983d
00000050: 20ac e33d 0551 703d 58bc b13c 2c33 6f3b
00000060: 0ebb adbc 00b4 9c3b 5bee 013c 12e2 e9ba
00000070: ae5e f938 d06d 423a f650 2abd 1f8f 75bd
00000080: 4908 78bd 3e35 83bd de75 f43a 9c74 ff3c
00000090: f2fa 50be f6af fc3c 35fa a23a 585b 3c3e
000000a0: 421b 633d 6960 893e 1d84 a43d 1544 dd3d
000000b0: 8f36 9b3d 0607 323e ec15 f03d 1992 dabd
000000c0: 23f0 c7bd 4c6a 843d 9c24 8d3d 7407 213e
000000d0: caae 013c cdac 653c ca99 ab3c 00da 213c
000000e0: 5a86 fcb8 5d46 adb8 b5c0 53bd f5d0 8fbd
000000f0: ca9a d8bd 3066 29be d030 e2bd 7413 ad3b
00000100: 75f0 203c 417b 4f3e 0491 ca3c f5f3 d13c
00000110: 3cf4 a23c 682a ba3d 69d4 cf3d 3117 b7bc
00000120: f627 c4bc d442 5b3e 7896 593e 5634 283d
00000130: c94e a8bd e2f4 3dbe 733c de3c fd32 6dbd
00000140: c1c8 63bc 69bf a23d cc2e 6bb9 ecdc 6339
00000150: 0d2d 0bb9 896e b4ba d817 48bd d6b3 edbd
00000160: 30fa 45be f5ed 28be 1767 773e 0f13 033e
00000170: 5790 32bd b9f8 f7bd 1d64 67bd 77c9 31bc
00000180: caa2 52bc 164d aebc 4b2b 04bd 8833 e8bd
00000190: 18f6 98bd 7e97 9a3d 201c 873d a0e0 5bbe
000001a0: 37d1 5ebc cb7a 453d 5fe6 283d 7f5c 283d
000001b0: 33c6 963d ab7c 713d 25c0 a9bc 3a3d 47bc
000001c0: 2797 70bb e252 18bd 0c86 4ebd 48fd 13be
000001d0: e365 57be 721f e53c 2f55 193e 5c6f dabd
000001e0: d641 2abe a005 31bd 24ae 0c3e 2527 b63d
000001f0: e9fc 1cbe 2cda 43be caf9 97be 15c2 8bbd
00000200: 46d0 a3bd 2a23 323e 163e de3d 0d95 bdbc
00000210: 0f34 c03c eefc 9b3d 6fc4 193e f659 6a3e
00000220: d501 fd3d 9a4a 04bc 004f 9ebd cd0c 203b
00000230: c829 91bb c5ae 8dbd cb5a 55bd 5f3c 07be
00000240: 9518 4ebd 75fa 883d 140a 383e 5bfb 17bd
00000250: f0b4 5ebd 832e babd 0002 2c3d ccdc 663d
00000260: df09 1b3d 6628 9dbd 3f16 2b3d e913 3d3d
00000270: 4d4c 10be 87fe 2b3e a4f9 523e 814a 41bc
00000280: 78b8 983d 7a44 673e 3e7f de3d ce16 703e
00000290: 0abc aabc 2e81 39be 592d 04bd c41f e43b
000002a0: 76a3 d5bb b04a 89bd 651d 47bd 2945 fdbd
000002b0: 1f1c 08be 962d d53d 8bb1 463e c0cf b73d
000002c0: 687c 8fbc 9939 49be 6460 12be 9593 ccbd
000002d0: 4834 c03c f653 d53b 93e2 30bd 8b8a 273b
000002e0: 8c2c a4bc b0e4 e3bc 9e4e 3d3d 831d 25ba
000002f0: 9927 e63c 1847 2b3e fc39 d63d fe0e 913d
00000300: 6735 e7bd 2af1 2cbd a707 d53d 8ae4 753d
00000310: 2d78 33bb 9fc3 47bd 26e1 c3bd 4dc4 98bd
00000320: bb1f 61be 9563 b43c 1643 533e 15ed fb3d
00000330: 155f a3bd abed 6fbe b251 46be ad68 57be
00000340: 22dc 46bd a733 6abd c762 fbbe dfe1 1abe
00000350: 694e cbbd b9c4 cdbd d098 b53d 2968 863e
00000360: 7041 7f3e da86 2d3e c2f6 493e 0fb3 45bd
00000370: 9a72 35be b981 393e 5a64 413e a130 bbbc
00000380: 60d8 86bb 9e05 61bb 9adc d4bd b551 e4bd
00000390: 2ea6 eabd 9256 ccbc c3fe c73d 8d50 7b3e
000003a0: bb90 90bd 6f68 75be e83a 75be 4af0 21be
000003b0: f115 79bd 701b 73be b521 b5be 7e24 02be
000003c0: cb02 b7bd ec73 2bbe 9d5c acbd 7607 a33d
000003d0: f8ab 5f3e c051 913e 448d 263e b003 93bd
000003e0: ebe6 2dbd c610 78bd a06c 443e 3e05 973c
000003f0: 2509 e7bb 9e7c c4bc df81 77bd 5b5f d8bd

network.0.bias f4 [32]
-0.04049853 1.0184157 0.13693959 0.90935534 0.6555998 -0.77245224 0.11225698 -0.67078835
1.0681773 -0.029788692 0.5572248 -0.7523286 -0.015138415 -0.36674768 0.07033496 0.2724425
-0.3996808 0.97645444 -0.86265385 0.9015923 0.110424444 -0.32309425 -1.0070168 0.3117008
0.9179276 0.041887917 1.2946097 0.27186295 0.65311056 0.5812903 -0.16630481 0.7631165
00000000: c9e1 25bd 725b 823f e439 0c3e 83cb 683f
00000010: 63d5 273f 6ebf 45bf fde6 e53d c9b8 2bbf
00000020: 09ba 883f 6a07 f4bc 49a6 0e3f 9b98 40bf
00000030: 1d07 78bc 5ac6 bbbe c70b 903d 957d 8b3e
00000040: f6a2 ccbe ebf8 793f e2d6 5cbf c1ce 663f
00000050: 3626 e23d 9c6c a5be ede5 80bf 3f97 9f3e
00000060: 4efd 6a3f aa92 2b3d c5b5 a53f 9f31 8b3e
00000070: 4132 273f 71cf 143f cf4b 2abe 9a5b 433f

network.2.weight f4 [64, 32]
-0.005567583 -0.02690415 -0.0425652 -0.08851429 -0.0033807405 -0.06765044 -3.330683e-07 -0.014798103
3.0677447e-06 -2.0220174e-13 -0.0075381002 -0.09850569 -0.0053407187 -0.0037105444 -0.051537763 -0.09335551
-0.12167724 -0.002463862 0.011581764 -0.00033493954 0.007165355 -0.018907836 -0.06458058 -1.11537254e-07
-0.036315724 -0.0019810065 -6.833104e-05 -0.0086182915 -0.016387368 0.006376772 -0.02759808 -0.0023749555
-0.21090318 0.42441642 -0.5652332 0.019533249 0.037083536 0.30257842 -0.045877203 -0.12288769
0.70144385 0.014246185 0.20595363 -0.3979798 -0.25205457 -0.112151094 0.24104753 -0.26074567
-1.0114428 -0.18334734 -0.34680936 0.42520043 0.75358665 -0.42346013 -0.41361234 -0.23461667
-0.37603953 -0.04864222 0.2723216 0.68100727 -0.7131116 0.14151882 -0.018008642 0.56317854
0.41117138 -0.31080055 -0.13636777 -0.30291906 0.016606094 -0.4993463 0.008900011 -0.2928836
-0.28421402 0.0019723547 -0.17850268 0.10079643 -0.3044568 -0.32125533 0.35360646 -0.24640776
0.0593683 0.012998733 -0.18265052 0.074654564 -0.18704928 -0.043816768 0.083335675 0.1372049
0.25175545 -0.003991266 0.15644091 -0.30304223 -0.11111592 -0.35081735 0.058167383 0.037539147
-0.06540603 -0.06984225 -0.0068294695 -0.43921694 -0.20653386 0.2550859 -0.07121797 0.41747004
-0.19260657 -0.008666279 -0.3733728 0.16517718 -0.0561421 -0.25399524 -0.040124003 -0.39690882
-0.0031648977 0.38278118 0.1444393 0.7516452 0.02176998 -0.3741736 -0.24722895 0.4500006
-0.20466828 -0.044282474 0.23817015 0.0121573545 -0.5992103 0.2574693 0.05837895 0.041034546
-0.15636314 -0.21814255 0.11227255 -0.16766238 -0.18941194 -0.22188313 -0.03450701 -0.007983011
-0.43742055 0.051214084 0.42739004 -0.119119175 0.24272898 -0.32197952 -0.33771005 -0.20281526
0.1752987 0.06960305 -0.24037783 0.40417647 -0.04461846 -0.047141805 -0.16103493 -0.14587367
0.62754923 0.08225256 0.045246217 -0.23794049 -0.15998133 -0.18132007 0.07162802 0.51963943
0.1471689 0.29522353 -0.17696798 -0.24381103 -0.24638 -0.356828 0.044101004 -0.24166837
0.08335116 -0.054325048 0.16332984 0.02691656 0.16159527 0.0693607 -0.4648695 0.1786326
-0.08312239 0.0021045236 0.12226855 -0.12813424 0.30232996 0.17267253 0.50342625 -0.22081906
-0.195133 0.10833351 -0.20218942 -0.4615929 0.09425804 0.4864636 -0.20859186 -0.14007834
-0.089832745 0.10467104 -0.4063121 0.29745272 0.0084320195 0.15618838 0.066349044 -0.27612048
-0.122416005 0.09729512 -0.25101113 -0.004974962 -0.20249788 0.43823162 -0.57343936 -0.051855315
0.16303684 0.112084754 -0.7936639 -0.21744478 -0.051385406 -0.25780183 0.112231195 -0.034632582
0.122137606 -0.028009852 -0.2088832 0.10919415 0.43835303 -0.62017703 -0.0628546 0.13837449
0.018780464 0.017194338 -0.7118729 -0.25608855 0.25589693 -0.054989822 -0.12333066 -0.075947076
0.48229212 -0.069380686 0.15255356 -0.16867243 -0.023471197 -0.0071405335 -0.02594493 0.36398512
-0.288749 -0.19560303 0.15403163 0.05932897 0.53510696 -0.38185403 -0.21284728 0.14245944
-0.016006058 0.05865752 0.031092545 0.124235325 0.10708628 -0.16880447 -0.1453187 0.40514463
00000000: 4570 b6bb 1866 dcbc d958 2ebd fb46 b5bd
00000010: 6a8f 5dbb 508c 8abd 8fd0 b2b4 be73 72bc
00000020: 74df 4d36 afa8 63aa 2b02 f7bb 5abd c9bd
00000030: 3201 afbb 9b2c 73bb 4319 53bd 2c31 bfbd
00000040: eb31 f9bd bf78 21bb 70c1 3d3c d39a afb9
00000050: 5bcb ea3b 9be4 9abc d342 84bd 4186 efb3
00000060: ccbf 14bd c6d3 01bb f34c 8fb8 bc33 0dbc
00000070: cd3e 86bc 3ef4 d03b 5e15 e2bc 24a5 1bbb
00000080: 01f7 57be 1c4d d93e 1fb3 10bf 3104 a03c
00000090: e8e4 173d 8feb 9a3e bce9 3bbd 8bac fbbd
000000a0: d391 333f d568 693c 82e5 523e 02c4 cbbe
000000b0: 4c0d 81be 79af e5bd 2ad5 763e 7580 85be
000000c0: f576 81bf 68bf 3bbe ff90 b1be dfb3 d93e
000000d0: 0eeb 403f c4cf d8be ffc4 d3be 5a3f 70be
000000e0: 4188 c0be 113d 47bd bd6d 8b3e 7e56 2e3f
000000f0: 7b8e 36bf 4fea 103e dc86 93bc 782c 103f
00000100: 0e85 d23e 4021 9fbe fea3 0bbe 3518 9bbe
00000110: 8109 883c 51aa ffbe 5ad1 113c d7f4 95be
00000120: 8084 91be 9f42 013b 68c9 36be 5c6e ce3d
00000130: c3e1 9bbe 947b a4be e80b b53e 5152 7cbe
00000140: 2d2c 733d a3f8 543c bd08 3bbe 7ee4 983d
00000150: d989 3fbe 3679 33bd e5ab aa3d 717f 0c3e
00000160: 17e6 803e 2ac9 82bb 0c32 203e 5a28 9bbe
00000170: be90 e3bd 559e b3be ec40 6e3d a6c2 193d
00000180: 99f3 85bd 7409 8fbd bec9 dfbb 0be1 e0be
00000190: 9d7d 53be 9e9a 823e bada 91bd a2be d53e
000001a0: a83a 45be 02fd 0dbc b82a bfbe 3524 293e
000001b0: 42f5 65bd aa0b 82be 1159 24bd a237 cbbe
000001c0: 2c6a 4fbb e5fb c33e e5e7 133e d26b 403f
000001d0: f556 b23c af93 bfbe 9629 7dbe 7b66 e63e
000001e0: 9094 51be 8a61 35bd e0e2 733e a42f 473c
000001f0: d965 19bf 04d3 833e c41e 6f3d d713 283d
00000200: a91d 20be c360 5fbe 27ef e53d b0af 2bbe
00000210: 34f5 41be 5535 63be 3957 0dbd 2dcb 02bc
00000220: 96f5 dfbe dcc5 513d ded2 da3e c1f4 f3bd
00000230: f28d 783e 80da a4be 55e8 acbe ceae 4fbe
00000240: 8181 333e 0b8c 8e3d 9b25 76be 38f0 ce3e
00000250: d9c1 36bd c417 41bd 57e6 24be e85f 15be
00000260: 11a7 203f 0874 a83d 1954 393d aca6 73be
00000270: 25d2 23be f8ab 39be b6b1 923d 1707 053f
00000280: 72b3 163e 8a27 973e 1837 35be 99a9 79be
00000290: 0a4b 7cbe 29b2 b6be 41a3 343d ea77 77be
000002a0: 03b4 aa3d f183 5ebd f03f 273e 1e80 dc3c
000002b0: 3b79 253e fc0c 8e3d 6003 eebe 77eb 363e
000002c0: 123c aabd 0cec 093b ef67 fa3d 9f35 03be
000002d0: feca 9a3e 11d1 303e 8be0 003f 641e 62be
000002e0: f2d0 47be f6dd dd3d be0a 4fbe e855 ecbe
000002f0: 5c0a c13d c211 f93e 1b99 55be b270 0fbe
00000300: 3bfa b7bd c55d d63d 2408 d0be b94b 983e
00000310: 7426 0a3c d9ef 1f3e 02e2 873d aa5f 8dbe
00000320: 3eb5 fabd aa42 c73d 8884 80be 0205 a3bb
00000330: 9b5b 4fbe e55f e03e eccc 12bf 3d66 54bd
00000340: 21f3 263e b18c e53d 8f2d 4bbf d8a9 5ebe
00000350: 8179 52bd 9afe 83be 78d9 e53d e5da 0dbd
00000360: 4823 fa3d eb74 e5bc 7ae5 55be 2fa1 df3d
00000370: cf6f e03e ecc3 1ebf eab9 80bd 0bb2 0d3e
00000380: 7dd9 993c 24db 8c3c 4d3d 36bf 0a1e 83be
00000390: ec04 833e 023d 61bd c994 fcbd 248a 9bbd
000003a0: feee f63e 7617 8ebd 0037 1c3e 77b8 2cbe
000003b0: ab46 c0bc 23fb e9bb 768a d4bc 425c ba3e
000003c0: e9d6 93be 294c 48be 78ba 1d3e ef02 733d
000003d0: c5fc 083f 5f82 c3be a3f4 59be e3e0 113e
000003e0: 231f 83bc de42 703d cbb5 fe3c 176f fe3d
000003f0: 0d50 db3d 14db 2cbe 6dce 14be 1e6f cf3e

network.2.bias f4 [64]
-0.0051987693 0.24339372 0.3322276 0.36571538 0.65546113 0.06441241 -0.057597876 0.37470147
0.03857169 -0.07464239 -0.07322338 0.52084774 0.43214363 0.24137506 -0.26242262 0.31901902
0.5838409 0.35267723 0.14564437 0.7973758 0.37046176 0.33704972 -0.17501138 0.2140327
-0.1534834 -0.009293561 -0.3089545 0.400419 0.6413034 0.25981867 0.22114915 -2.0461574e-25
0.5221308 -0.4298329 6.03012e-40 0.35453886 0.37786362 0.17057362 0.17712826 0.1939317
0.73724824 0.34948906 0.3364103 0.27574396 -1.6175502e-13 0.433819 0.07583151 -3.0809966e-12
-0.024304308 0.414183 0.5068504 0.3208228 0.47093663 4.13658e-40 0.46186817 0.808742
0.12816106 0.4009389 0.21674553 0.6828522 0.87836164 0.12917235 4.98487e-40 0.3407342
00000000: 705a aabb 343c 793e bc19 aa3e 0c3f bb3e
00000010: 4dcc 273f a7ea 833d c0eb 6bbd dfd8 bf3e
00000020: 59fd 1d3d 1cde 98bd 24f6 95bd 4756 053f
00000030: ee41 dd3e 062b 773e 425c 86be 7656 a33e
00000040: 9976 153f 1c92 b43e cc23 153e d220 4c3f
00000050: 2aad bd3e c891 ac3e 2f36 33be 632b 5b3e
00000060: c12a 1dbe 0544 18bc 492f 9ebe b803 cd3e
00000070: 762c 243f f406 853e ec74 623e 514d 7d96
00000080: 5daa 053f 0f13 dcbe f490 0600 1e86 b53e
00000090: 5777 c13e daaa 2e3e 1c61 353e 0896 463e
000000a0: 4dbc 3c3f 3bf0 b23e f93d ac3e 502e 8d3e
000000b0: b61e 36aa 861d de3e 8d4d 9b3d 4dce 58ac
000000c0: d419 c7bc cb0f d43e f3c0 013f e342 a43e
000000d0: 9b1e f13e 1c81 0400 fc79 ec3e b709 4f3f
000000e0: a73c 033e dd47 cd3e 8af2 5d3e 67cf 2e3f
000000f0: 4fdc 603f c245 043e 946d 0500 b774 ae3e

network.4.weight f4 [10, 64]
-0.02480267 -0.13119705 -0.16808423 0.069414906 0.025665322 0.26321107 -0.20033585 -0.3245626
0.05660322 0.045836013 -0.18053296 -0.36741635 0.23031066 -0.11037414 -0.39400303 0.25426012
0.16501403 0.21446922 -0.152946 -0.40334058 0.16711222 -0.055825625 0.15518913 0.42590678
0.2752227 0.017955342 -0.07311369 -0.05153908 -0.2076994 0.5181354 -0.20960769 -1.6720649e-06
0.112304255 0.046785336 5.8374013e-07 -0.105719455 0.22679 0.10175671 0.32953486 0.2952372
-0.18590486 0.2919255 -0.4307705 0.014455204 -1.4263439e-26 0.007078059 -0.23841049 0.00031189751
0.07095838 0.29996952 -0.42354935 -0.5191256 0.5370608 3.88591e-40 0.20727512 0.10899708
-0.17638521 0.11306768 0.2260811 0.09604476 0.31091902 -0.0009106734 4.74033e-40 -0.2627406
-0.009170722 -0.25916803 -0.118751675 -0.19757399 0.19558027 0.087699756 0.6344628 0.056918632
-0.010168439 0.13969414 0.30538803 -0.46934986 -0.1668221 -0.04824381 0.69634473 0.2744953
-0.15277122 0.37370336 0.15335017 -0.37134916 -0.13670741 -0.008319131 0.22380777 -0.20696382
0.34135488 0.09488226 0.25086722 -0.32877114 -0.49348634 -0.33138096 0.22349378 -8.64493e-17
-0.3584857 -0.05679548 -2.419108e-19 0.19711974 0.23867421 0.06787186 0.13308221 -0.14119177
0.054221965 -0.26721552 -0.44095322 0.16441317 -3.18896e-40 -0.020719696 -0.121084996 -0.0018163122
0.5373932 -0.12094117 -0.35727903 -0.039186914 -0.4824537 -6.52513e-40 -0.4587081 -0.038631056
0.07939742 0.14040041 -0.25537312 0.19053224 -0.467073 0.16064945 -2.68522e-40 0.4892882
-0.000405945 -0.6079 -0.08052337 -0.3760475 0.19088045 0.3773329 -0.057802834 0.0068894755
-0.18536508 0.11945311 -0.101449884 -0.28990158 -0.012286694 -0.13670534 -0.30054653 -0.3080016
-0.024292769 -0.15614064 -0.038933955 0.21282972 0.13875586 0.16957498 0.18026465 0.0054874457
0.03502466 0.0006273325 -0.21574281 0.18942487 0.29516837 0.21251902 0.2971238 -3.5740708e-05
-0.41127405 -0.10563508 -0.0002916952 -0.23495099 -0.030170254 -0.13381721 0.064803526 0.23321025
0.122708805 0.41050777 -0.5193145 -0.50274473 -7.80173e-40 0.20807649 -0.060789797 0.008019277
0.12967016 -0.0679556 -0.18794665 0.016749663 -0.03714139 9.112799e-34 0.18845604 -0.39621565
0.46189472 0.11721132 0.041667104 -0.28925845 0.3301832 -0.034341946 -3.1167977e-09 -0.19385755
0.103441656 -0.40008318 -0.118126586 -0.1476474 0.27781942 0.0436786 0.23228943 -0.9278394
-0.22413282 -0.39119443 -0.027480436 -0.21521014 -0.37143177 -0.21070778 -0.15500739 0.19960368
0.21421014 0.41367018 -0.32313514 -0.8229178 -0.19798763 0.25137368 -0.17243518 0.16648428
-0.0072023175 0.007677078 0.34065297 0.44580504 0.31819484 -0.2663396 -0.2739494 -1.8203988e-05
-0.2907272 -0.17769699 -4.572141e-08 0.33267382 -0.40536094 0.23136923 -0.026885994 0.1744346
-0.33372948 -0.14736222 -0.8323844 -0.013694099 1.2260663e-36 -0.34353286 0.002104095 0.0042603314
-0.28759664 -0.10121077 -0.005568663 0.31807497 -0.017708931 -4.01618e-40 -0.49478117 0.31486955
0.08202275 -0.32492656 0.4468428 -0.12977912 -0.107781135 0.18076673 3.0522066e-30 -0.07831305
00000000: f82e cbbc 8558 06be 461e 2cbe 6729 8e3d
00000010: 1540 d23c 9ac3 863e d724 4dbe 122d a6be
00000020: c7d8 673d 8bbe 3b3d a2dd 38be ff1d bcbe
00000030: 8fd6 6b3e d60b e2bd c4ba c9be 622e 823e
00000040: 70f9 283e d29d 5b3e e09d 1cbe a882 cebe
00000050: 771f 2b3e 69a9 64bd e6e9 1e3e 7410 da3e
00000060: fde9 8c3e 1517 933c a1bc 95bd a41a 53bd
00000070: 27af 54be 86a4 043f 66a3 56be b66b e0b5
00000080: c6ff e53d fba1 3f3d 51b2 1c35 7183 d8bd
00000090: a33b 683e d265 d03d cbb8 a83e 5529 973e
000000a0: d85d 3ebe 4277 953e f38d dcbe 85d5 6c3c
000000b0: 1d42 8d94 10ef e73b e121 74be 2d86 a339
000000c0: a152 913d 9b95 993e 76db d8be 6ae5 04bf
000000d0: d17c 093f 3c3b 0400 ee3f 543e dc39 df3d
000000e0: 539e 34be 0790 e73d ce81 673e 1db3 c43d
000000f0: c730 9f3e 42ba 6eba 6929 0500 f085 86be
00000100: cc40 16bc acb1 84be 1434 f3bd d650 4abe
00000110: 3246 483e ee9b b33d 276c 223f 8323 693d
00000120: 8699 26bc fb0b 0f3e d25b 9c3e a04e f0be
00000130: 6ad3 2abe 4d9b 45bd a643 323f a68a 8c3e
00000140: 0f70 1cbe 0c56 bf3e d407 1d3e 7a21 bebe
00000150: 07fd 0bbe f74c 08bc dd2d 653e 53ee 53be
00000160: 11c6 ae3e a151 c23d ab71 803e b154 a8be
00000170: 3eaa fcbe c4aa a9be 8edb 643e a956 c7a4
00000180: 708b b7be 61a2 68bd 87cc 8ea0 c2d9 493e
00000190: 0367 743e 6700 8b3d b446 083e 9394 10be
000001a0: da17 5e3d 79d0 88be 9fc4 e1be ed5b 283e
000001b0: f478 0380 5abc a9bc 69fb f7bd 5311 eeba
000001c0: 9a92 093f 01b0 f7bd 47ed b6be 7582 20bd
000001d0: 2c04 f7be f11a 0780 cadb eabe 993b 1ebd
000001e0: 1d9b a23d 20c5 0f3e 44c0 82be e21a 433e
000001f0: 3124 efbe 4a81 243e 88ec 0280 fc83 fa3e
00000200: 04d5 d4b9 569f 1bbf 70e9 a4bd 4c89 c0be
00000210: 2a76 433e c731 c13e aac2 6cbd 1cc1 e13b
00000220: 58d0 3dbe d5a3 f43d f5c4 cfbd fb6d 94be
00000230: 214e 49bc 7cfc 0bbe 3ce1 99be 63b2 9dbe
00000240: a101 c7bc 55e3 1fbe 3679 1fbd 09f0 593e
00000250: 0416 0e3e 10a5 2d3e 4c97 383e 08d0 b33b
00000260: 0576 0f3d 9273 243a afeb 5cbe 98f8 413e
00000270: 4f20 973e 969e 593e 9c20 983e 4be8 15b8
00000280: 8392 d2be 3457 d8bd abee 98b9 fe96 70be
00000290: 9c27 f7bc 6107 09be b6b7 843d abce 6e3e
000002a0: c14e fb3d 132e d23e ccf1 04bf e1b3 00bf
000002b0: ce7e 0880 0112 553e b9fe 78bd 4963 033c
000002c0: 41c8 043e 4e2c 8bbd 1675 40be 9736 893c
000002d0: 9221 18bd 8f69 9708 9ffa 403e c7dc cabe
000002e0: 777d ec3e 7d0c f03d 20ab 2a3d af19 94be
000002f0: c60d a93e 24aa 0cbd 492f 56b1 9882 46be
00000300: 38d9 d33d b4d7 ccbe 5aec f1bd e130 17be
00000310: 593e 8e3e 55e8 323d 48dd 6d3e e286 6dbf
00000320: 1383 65be a34a c8be a71e e1bc 0c60 5cbe
00000330: 4e2c bebe c8c3 57be 42ba 1ebe e864 4c3e
00000340: e759 5b3e 94cc d33e f871 a5be beaa 52bf
00000350: 45bd 4abe 0db4 803e d992 30be db7a 2a3e
00000360: 6b01 ecbb ff8f fb3b 116a ae3e 8f40 e43e
00000370: 6fea a23e aa5d 88be 1943 8cbe c4b4 98b7
00000380: 32da 94be 33f6 35be 395f 44b3 3954 aa3e
00000390: 788b cfbe 0eec 6c3e 0440 dcbc fc9e 323e
000003a0: 97de aabe 1fe6 16be 2517 55bf 375d 60bc
000003b0: b89a d003 8ae3 afbe dbe4 093b 409a 8b3b
000003c0: de3f 93be 9847 cfbd 5579 b6bb b9da a23e
000003d0: 5212 91bc 8c5f 0480 f553 fdbe 9536 a13e
000003e0: 8bfb a73d c65c a6be 94c8 e43e d1e4 04be
000003f0: 5bbc dcbd ea1a 393e da9f 770e 9862 a0bd

network.4.bias f4 [10]
-0.23639144 -0.38072407 0.2775374 0.7162882 -0.56733096 -0.036952116 0.12804045 0.3569458
0.46407995 -0.82600844
00000000: 9910 72be 44ee c2be 6219 8e3e aa5e 373f
00000010: 9a3c 11bf 1a5b 17bd 091d 033e 9ac1 b63e
00000020: e39b ed3e 4a75 53bf
