models/mnist-logistic.pth (torch, 32515 bytes, 2 tensors)

linear.weight f4 [10, 784]
00000000: a1fa 40bc 30e0 8cbc 6ee4 bcba 4a93 593c
00000010: b8bd e5ba e7e8 b8bc e7d8 963c 17a7 04bc
00000020: 9cd5 3f3c 25c1 b23a 65b7 c8bc 6a35 a7bc
00000030: 07bf 94bc f874 f53b b884 6cbb 1c40 a0bc
00000040: 451a ac3c 936f 873c 5ebe b93c 0ad7 183c
00000050: 6aa3 96bc 977c 283c b139 e9bc 6e9f a5b9
00000060: 6751 d73c 1e41 05bd 5827 e23c 9366 40ba
00000070: aef6 dcbb 0c30 a93c 13c3 e5bc 8bda 11bd
00000080: 84b6 c63c 5cdd c13c b43a e93c ef23 c73c
00000090: 4e40 0a3c a978 ccbc 21fd 8d3c 2db8 03bd
000000a0: ae07 a8bc c222 79bb ec62 d3bc ec14 a63c
000000b0: 8144 91bc 22a5 aebc 2f7f 553b b516 d7bb
000000c0: d0c1 0a3d cb56 193b 1431 d4bc 8c5f 7dbc
000000d0: cc35 acbc b12f aebc ca2c b03c a17e ab3c
000000e0: 7322 e4bc 9355 a33c c448 febb be3c 03bd
000000f0: 0b51 0c3d 089c ca3a 9c34 053d 79f3 9b3b
00000100: 501f 8c3b 0487 85bc 408d 57bc bbd4 85bc
00000110: 5015 cdbc 2705 f33a e667 31bb 6e26 27bc
00000120: 0006 a23c a04a 763c 4ff1 81ba fe3c a53c
00000130: 30ed 33bb 85a7 89bb b427 02b8 1203 963b
00000140: 3f09 e93c 7120 cabc 3a50 8dbc d39f f63b
00000150: 9092 0a3d 5cbc 7dbb f5be f53c 4292 a6bc
00000160: 72a5 f7bc 89b2 7abb 3f51 11bd 3d47 e4bc
00000170: 2fdf 03bd 676d 853c 6f33 a93c cae6 25bc
00000180: f812 59bc 783b 5bbc 6219 c3bc 6845 6fbd
00000190: e5d8 20bc c349 f0bc a987 7fbd dae2 1abd
000001a0: 79ed 40bd ba4f 1fbd bce5 39bc fa9d 57bc
000001b0: 6cf6 4a3b 2eb2 2dbc 178b ddbc d5bc fc3c
000001c0: b24b 0ebd 02d2 0bbc 6a29 d7bc b092 313b
000001d0: 29a1 a33c 423b c8bc 8501 e03c 478f 1fbd
000001e0: 88ae 47bd 439a c9bc fffd 26bd 3ae5 093c
000001f0: 87e0 86bc dde4 40ba 66d5 06bc 0982 133d
00000200: 1a36 90bc 057b 5e3a 3910 00bd 81b0 533c
00000210: c9d3 d33b 9b3f 8ebc 7d8b 973c c0d4 803c
00000220: b00b af3c 37b9 c5bc 00f7 a43c b62f 86bc
00000230: e52b 89bb 5756 823c fec3 e5bb 1c48 013d
00000240: bd36 d33c 194d 3d3c 1573 553a ae69 4ebd
00000250: 24b3 2bbd ebdc 4bbd e33c 02bb 3ef0 52bd
00000260: 14d1 b0bc e926 763d cd1f aa3d aac1 973d
00000270: 5df5 963d 836d d53d 2afe 843d 6ae3 1d3d
00000280: 0112 b93c ac95 2fbd 49e5 11bd 59bd ccbc
00000290: a8aa bbbc 7a9e e33b 8333 d7bc 1a21 9f3a
000002a0: 8c22 ccbc ce65 d2bb 1f81 ff3c 712d b83c
000002b0: dc92 9fba 1707 4ebc 9042 48bc 4d43 14bd
000002c0: 57dc 47bd 836c f8bc ca3f 98bc 2e89 c0bc
000002d0: 242e 083c 1634 8d3d 2ee4 523d 56fc a83d
000002e0: c328 fe3d 0696 fe3d 3e67 b73d 6e66 4e3d
000002f0: 0cdd 8b3c 586b 573b c5fe 053c d065 ef3b
00000300: df4e 003c 9f08 49bc d973 10bd f779 d3bc
00000310: 310f fabc b167 f23c bf0d 78bc d4d9 8fbc
00000320: c67f d93b 7b5a a3bc 79c2 d0ba b48a 80bc
00000330: c7de 3bbd fb50 7fbd a7b9 98bc 781d dfbc
00000340: 041a 1c3d 4089 aa3c e4fd 223d e561 5d3d
00000350: 4ae7 d83d b737 f93d 10af bd3d d458 dd3d
00000360: 9e8d 8c3d afe7 f63c 12e5 593b 5046 ac3c
00000370: 2a08 5dbd 1a56 5c3c c56b ef3c 5849 643c
00000380: 59a6 533a 509a 3c3c 1763 013d ff4b 00bc
00000390: b485 9ebb cd1a d1bb 486f d4bc 6940 4abc
000003a0: abee 0abd fd72 67bd 5048 093b faba 35bc
000003b0: a860 1b3d 3949 dc3c 0427 003d c77a 7f3d
000003c0: 7707 da3d a194 a23d a809 fc3d 2739 fa3d
000003d0: 3ab6 3f3d dea4 083d 981f d63b f454 123d
000003e0: 2053 dbbc 0321 ce3b 7d9c 663c ee0b 10bd
000003f0: f447 953c c8f2 013d 26c6 60bc a054 cc3c
-0.011778505 -0.017196745 -0.0014411339 0.013279745 -0.0017527854 -0.022571994 0.018413974 -0.008096478
0.011708643 0.0013637884 -0.024501512 -0.020411212 -0.018157495 0.0074907504 -0.0036089849 -0.01956182
0.02100862 0.016532695 0.022673782 0.009328613 -0.018388469 0.010283611 -0.028469892 -0.00031590037
0.026283933 -0.032532804 0.027606651 -0.00073395035 -0.0067432737 0.020652793 -0.02804712 -0.03560881
0.024256952 0.023665123 0.028470375 0.024309127 0.008438183 -0.024959879 0.017332615 -0.032158066
-0.020511474 -0.0038015102 -0.025804006 0.020273648 -0.01773286 -0.021318976 0.0032577028 -0.006563986
0.03387624 0.002339768 -0.025902309 -0.015464675 -0.021021746 -0.021262975 0.021505732 0.020934405
-0.027848458 0.019938266 -0.007760139 -0.03204035 0.034256976 0.0015457878 0.032520875 0.004759249
0.0042761937 -0.016299732 -0.013156235 -0.01633679 -0.025034577 0.0018540964 -0.0027069985 -0.010202033
0.019778252 0.01503244 -0.0009913835 0.020170685 -0.0027454607 -0.004200878 -3.103139e-05 0.0045780027
0.028446792 -0.024673672 -0.017250169 0.0075263768 0.03383118 -0.0038717007 0.029998282 -0.020333413
-0.030230258 -0.0038253388 -0.035477873 -0.027866 -0.032195266 0.016287519 0.020654408 -0.010125825
-0.013249151 -0.013380878 -0.023815814 -0.0584158 -0.009817337 -0.029332047 -0.062385235 -0.037814
-0.04710147 -0.038894393 -0.011346277 -0.013160223 0.0030969633 -0.010601563 -0.027043862 0.03085176
-0.034740157 -0.0085339565 -0.026264865 0.002709549 0.019974308 -0.024442319 0.027344475 -0.038955
-0.04875043 -0.02460969 -0.040769573 0.008416468 -0.016464485 -0.0007358322 -0.008229589 0.036012683
-0.017603923 0.0008486959 -0.03126547 0.0129205 0.0064644557 -0.017364314 0.01849913 0.015726447
0.021367878 -0.024136169 0.02013731 -0.016380172 -0.004186141 0.01591031 -0.0070118895 0.03156291
0.025782937 0.011554026 0.0008142454 -0.050393753 -0.04191889 -0.04977123 -0.0019872717 -0.051498644
-0.021584071 0.0600957 0.08306847 0.07409985 0.07371018 0.10421278 0.064937904 0.038546957
0.022591593 -0.042867348 -0.035619054 -0.024992632 -0.022908524 0.006946382 -0.02626968 0.0012140602
-0.024918817 -0.0064208275 0.0311895 0.022482606 -0.0012174505 -0.012574933 -0.012222901 -0.036196996
-0.048794117 -0.03032518 -0.018585104 -0.023502912 0.008311782 0.068947 0.05148714 0.08251254
0.124101184 0.124309584 0.08955239 0.050390653 0.017073177 0.0032870378 0.008178418 0.007305838
0.007831304 -0.012270122 -0.03526673 -0.025814993 -0.030524822 0.02959046 -0.015139996 -0.017559923
0.0066375462 -0.019940605 -0.0015927098 -0.015691139 -0.045866754 -0.06233309 -0.018643213 -0.027235731
0.038110748 0.020817399 0.03979291 0.054048438 0.1059099 0.1216883 0.09261906 0.10807958
0.06862949 0.030139772 0.0033248109 0.021029621 -0.053962864 0.013448263 0.029226193 0.013933502
0.0008073799 0.0115114 0.03158864 -0.007830619 -0.004837716 -0.0063813687 -0.02593197 -0.012344458
-0.033919018 -0.056506146 0.0020947643 -0.011091942 0.037933975 0.026890384 0.03128721 0.06237295
0.10645955 0.07938505 0.12306529 0.12217932 0.046804644 0.033360355 0.006534528 0.03572555
-0.026773036 0.0062905564 0.014075396 -0.035167627 0.018222786 0.031725675 -0.013719117 0.024942696

linear.bias f4 [10]
00000000: 69b3 d5bd cbfe 273e 8eca 1dbc e73a 9ebd
00000010: 1520 903d 3640 3b3e b4fa 45bd 1725 e53d
00000020: d50a 99be e662 89bd
-0.104346104 0.1640579 -0.009630812 -0.077260785 0.07037369 0.18286213 -0.048334792 0.11188715
-0.29891077 -0.067083165
