models/mnist-feedforward.pth (torch, 103451 bytes, 4 tensors)

layer1.weight f4 [32, 784]
000000 dc 94 a3 bc 37 e7 ac 3c f5 61 84 3c e5 9e 8e 3c
       -0.019968443 0.021106346 0.01615999 0.017409751
000010 53 08 55 3c f0 e7 83 bc 95 a2 93 3c b8 74 74 3c
       0.013002473 -0.016101807 0.018021861 0.014920406
000020 da eb a5 bc 65 75 e1 bc a3 2d 06 bd 20 2d 01 3c
       -0.020254064 -0.027521798 -0.032758366 0.007884294
000030 7d cf 65 bb 64 08 9c 3c d1 e4 af bc dc 63 1f 3c
       -0.00350663 0.01904697 -0.021471413 0.009728398
000040 a5 40 c2 3c 78 0e df bb 93 90 97 3b 05 29 bb 3c
       0.023712466 -0.0068071447 0.004625389 0.022846708
000050 b7 49 4d bc 9c 48 ff bb ea 05 d2 3c 3e c4 07 bd
       -0.012529782 -0.007790638 0.025637586 -0.033146136
000060 d5 aa cb bc 41 21 e8 3c ee 61 77 bc 03 ee c1 3c
       -0.024861732 0.02833617 -0.015099032 0.023673063
000070 77 68 30 bc 5c 95 33 bb ae f4 d0 bb f8 f0 69 3c
       -0.010767094 -0.0027402258 -0.0063768243 0.014278643
000080 f8 11 e2 3c 6e 51 2b ba 3e cc 8e bc dd 00 90 bc
       0.027596459 -0.00065352663 -0.017431375 -0.017578537
000090 26 0d 8d 3c 6a 05 ad 3c 2b 4e 9d 3c 5e 8b 6f bc
       0.017218184 0.021120746 0.019202312 -0.01462063
0000a0 7f 96 b8 b9 af d5 b1 bc 70 7f d7 bb a0 c1 aa bb
       -0.00035207343 -0.021708338 -0.006576471 -0.00521107
0000b0 c2 b2 3b 3c 54 44 08 3d fe 3c fe bc 22 79 b5 3a
       0.011456193 0.033268288 -0.031034943 0.0013845304
0000c0 f8 8b 84 3b 63 07 0e bd ab c2 a3 bc 59 66 0c bb
       0.004045006 -0.034675013 -0.019990286 -0.0021423309
0000d0 3c ab b0 3c e7 49 b4 3c 6e 6f 59 ba f3 8c 01 3d
       0.021566026 0.022007896 -0.00082944974 0.03162856
0000e0 a0 20 03 bd de a2 f8 bc 33 4e bb bc b5 0a a4 3c
       -0.032013535 -0.030351099 -0.022864437 0.020024637
0000f0 37 6f 06 3d 26 98 0b 3a ea 79 c1 bc ac 71 47 bb
       0.032820906 0.0005325101 -0.023617703 -0.0030432744
000100 10 9a e8 bb 58 4c e5 3c 46 58 d9 bc d4 5d 3d bb
       -0.007098444 0.027990505 -0.02653135 -0.0028895037
000110 2d f9 29 bc ff 1c c2 bc 18 cc da 3b c3 08 58 bc
       -0.01037435 -0.023695467 0.006677162 -0.013185683
000120 6c 0e 9d bc fd e2 25 3c 5c 72 36 3c 31 ab f7 3c
       -0.019171916 0.010124919 0.011135664 0.030232998
000130 8f 6b d8 bc 47 95 9d bb 9c 16 07 3d d5 97 e2 bc
       -0.026418475 -0.004809055 0.032980546 -0.02766029
000140 99 47 7b bc 39 72 ed 3c ca 8c 1a bc fc 31 fc bc
       -0.015336894 0.02898513 -0.009432981 -0.030785553
000150 e5 03 83 3c c5 08 2b 3c a4 3d cf 3c 47 bf c6 3c
       0.015993068 0.010439103 0.025297947 0.02426113
000160 e5 06 01 3d 37 ff ee bc 40 c3 99 3c c3 b3 be 3c
       0.031500716 -0.02917443 0.01876986 0.023279076
000170 fa 4b fd 3b 1b 30 a6 3c 0b 5e 12 bd 04 be e5 bc
       0.0077300044 0.02028661 -0.035734218 -0.028044708
000180 30 2f 4b 3c 76 ab a1 bc 63 9f 18 bc 41 d3 34 bd
       0.012401387 -0.01973508 -0.0093153445 -0.04414678
000190 9e 33 38 3c 1e 63 9e 3c 0b 1d c7 b9 57 96 69 bc
       0.011242775 0.019334372 -0.00037977876 -0.014257035
0001a0 1d 6b e0 bb 93 9b 09 3d 11 61 c7 3c 5c 34 c0 3c
       -0.0068487064 0.033595633 0.024338277 0.023462467
0001b0 13 91 05 3d 18 62 fe 3b e5 63 cb bc be d2 c9 bc
       0.032609057 0.0077631585 -0.024827907 -0.024636623
0001c0 fe 0a 9d bc 01 80 e5 3a 79 eb 12 3c 2e a2 a9 bc
       -0.01917028 0.0017509462 0.008967274 -0.020707216
0001d0 5f f8 ad bb a5 ff 48 3c 3b 46 56 3b 1f 04 cc 3c
       -0.005309149 0.012267982 0.003269567 0.024904309
0001e0 d6 bc 94 bc f1 24 3e 3c 70 9d 88 bc 67 4f 7d 3b
       -0.01815645 0.011605487 -0.016676635 0.0038652064
0001f0 2b f2 0f bc 57 55 4d bb 76 0d c6 bc 82 a9 4c bc
       -0.008785765 -0.0031331384 -0.02417634 -0.012491586
000200 d1 ff 0f bd 34 a8 29 b9 43 df b7 bc 8e 51 c5 bc
       -0.035156075 -0.00016179756 -0.022445327 -0.02408674
000210 25 68 f4 bc 63 55 bb 3c c3 84 9a ba 70 dc 3e bc
       -0.029834816 0.022867864 -0.0011788834 -0.011649236
000220 4c 72 86 bb 6c 37 c5 3c 24 1c 33 3c 16 03 0c 3d
       -0.0041029807 0.024074279 0.010932002 0.03418263
000230 2c e3 e4 bc b7 d9 ba bc 7a e4 8a bb bd d6 22 3c
       -0.027940355 -0.022808893 -0.0042386623 0.009938893
000240 0c 28 d8 3c 9b 11 d5 3c 55 fa 63 bb 1a cb db bb
       0.026386283 0.026009372 -0.003478666 -0.006707561
000250 2e 0b ff 3b 08 10 b3 bc e4 ee fc bb 13 26 3a bd
       0.007783315 -0.02185823 -0.0077189077 -0.045446467
000260 16 9d 64 bd 1b a1 4c bd 59 3a 67 bd 45 5b 37 bd
       -0.05581387 -0.04995833 -0.05645213 -0.044764776
000270 41 35 0a 3c c1 32 c2 3c 56 7a f9 ba 41 27 2d bc
       0.008435548 0.023705842 -0.0019033651 -0.010568441
000280 95 2b fc bb 67 a3 3b 3c fb 0c 96 3c f7 28 33 b8
       -0.007695625 0.011452532 0.018316736 -4.2715077e-05
000290 dc b9 ea 3c 86 b5 e7 bb da d5 e5 bc 31 1f 44 bc
       0.028653078 -0.0070712 -0.028056074 -0.011970327
0002a0 6c 52 83 bc 91 e1 db 3c 19 d2 c1 bc c2 4f c6 bc
       -0.016030513 0.026840957 -0.023659753 -0.024207953
0002b0 4d 61 45 3c 16 41 aa 3c 56 ed ba bc 55 1a 05 3d
       0.012047124 0.020782989 -0.022818249 0.032495815
0002c0 5a a5 02 3c 44 27 c1 3c 44 ba 59 bc 08 9c 13 bd
       0.007973993 0.023578294 -0.013289038 -0.036037475
0002d0 2b e2 25 bd c9 89 98 bd c5 cb 39 bd b4 de a6 bc
       -0.040498894 -0.074481554 -0.045360345 -0.020369865
0002e0 12 a9 ea ba c6 55 34 ba 2d 52 ae 3c a9 5d b6 bb
       -0.001790317 -0.00068792363 0.021279419 -0.0055653644
0002f0 0a d9 e7 3c b3 85 e9 3c d2 45 08 bc fa 22 7a 3a
       0.028301734 0.028506136 -0.008317428 0.0009541955
000300 c2 a6 e6 bc 42 66 b8 3c 7b be bf 3b cd 2c 10 bd
       -0.028155688 0.022509698 0.0058515645 -0.035198975
000310 b3 57 c8 3c d7 55 e4 3c 46 d8 05 3a 33 f5 b6 bc
       0.02445588 0.027872963 0.00051057746 -0.022333717
000320 f4 04 b8 bc 36 4a d1 3b e8 25 0d 3d 16 2e 32 3c
       -0.0224633 0.0063870205 0.03445998 0.010875246
000330 85 e0 23 bc 74 f1 9f bb 69 d9 43 bd 43 dd 40 bd
       -0.01000226 -0.0048810784 -0.04781476 -0.04708601
000340 48 77 1e bd 89 4b 1a bd 4d b8 4f 3c 5b ab dc bc
       -0.038687974 -0.037669692 0.012678218 -0.026937177
000350 1f 0f 92 3c e7 df 18 3b f5 99 56 bc 59 c9 08 3d
       0.017829476 0.0023326816 -0.01309823 0.033395145
000360 49 47 55 bb e6 24 2a 3b 82 38 44 bc c7 d9 48 bc
       -0.003254371 0.0025961935 -0.011976363 -0.012258953
000370 5d 71 87 3c 8b 7a 71 3b d6 6a c2 bc b5 5b 83 3c
       0.016533548 0.0036846723 -0.023732584 0.01603494
000380 27 ad 07 3d 75 39 a8 3c bb 8e a6 bc c7 fc 5e ba
       0.033124115 0.02053521 -0.020331731 -0.00085062947
000390 23 b8 e5 bc d3 70 70 3c f6 99 64 3c db 32 14 bd
       -0.028041905 0.014675337 0.013952723 -0.036181312
0003a0 88 e7 c1 bc aa 50 4c bc 9b a3 6f bd 25 29 81 bb
       -0.023669973 -0.012470404 -0.058505636 -0.0039416724
0003b0 4b 7c 07 bd 62 f2 c1 bb 67 cc c2 3b cb 76 dd 3c
       -0.03307752 -0.005918787 0.005944777 0.027034184
0003c0 a1 08 c9 3c 29 b1 a7 3c f3 20 83 3b 59 e0 01 bd
       0.024540247 0.020470219 0.0040017306 -0.031708095
0003d0 1c ec e4 3c 67 d3 0b 3d 2c c1 02 3d 62 44 ed bb
       0.027944617 0.034137156 0.031922504 -0.007240818
0003e0 a6 7c 49 3c df fa d9 3c 33 bb d2 bc 41 f5 ee 3c
       0.012297785 0.026608882 -0.02572403 0.02916968
0003f0 8a da 94 3b 8e 97 34 bc 85 5a a1 3c ed 84 77 3a
       0.0045426534 -0.011022462 0.019696483 0.000944211

layer1.bias f4 [32]
000000 1d d0 f0 bc 2d 63 03 bd a0 36 08 3f e7 e8 df bd
       -0.029396111 -0.032077003 0.5320835 -0.109330945
000010 54 b2 b4 bd 6f 02 95 3e c0 9c b3 bd 69 67 fe 3e
       -0.08823076 0.2910342 -0.08770132 0.4968827
000020 ce 9b 09 bd 2c 17 91 be e3 14 53 3e dc 16 05 be
       -0.033595853 -0.2833799 0.20613436 -0.12997001
000030 84 41 99 bd 29 d4 6e b9 6e 2a ee bd 5d 66 20 3f
       -0.07483199 -0.00022776485 -0.116291866 0.62656194
000040 83 b6 2f 3e 99 35 29 bd a4 83 60 3c bb b9 c0 bd
       0.17159466 -0.04131088 0.013703261 -0.09410425
000050 5d 52 24 be 6a fd 1d 3d 2f 2e c1 bd 95 ae a2 bd
       -0.16047044 0.038571753 -0.09432637 -0.07943455
000060 7d 90 5f 3e 1f f9 bb 3d 91 10 8b 3e 11 2d 35 3d
       0.21832462 0.091783755 0.27161077 0.04423243
000070 7b 01 95 bd 5f 1c 37 3e 2b 50 c6 be 37 9e 77 3d
       -0.07275673 0.17881916 -0.38733038 0.06045362

layer2.weight f4 [10, 32]
000000 a8 64 0b 3e af ad 7b 3d 6e 49 00 3e ae 3b 6f 3f
       0.13612616 0.061444934 0.12528011 0.9345044
000010 99 52 e7 be bf ab 1b 3f 1b 16 c9 be 51 7f 31 bf
       -0.45180205 0.6080894 -0.39274678 -0.69334894
000020 bb 9c ad be 2c 3e 41 bf 1b 55 76 be 5d ea 43 be
       -0.33908638 -0.7548549 -0.24055903 -0.19132371
000030 5d 8b 9b 3d c2 d4 99 be 1f 2b 54 bf 24 b7 a0 3e
       0.07594941 -0.30045134 -0.828783 0.31389725
000040 e2 79 34 bf 40 42 59 3e fe d5 02 3f c7 e8 19 3f
       -0.7049848 0.21216679 0.51107776 0.60120815
000050 45 d7 c4 3d ee e8 f8 bd 65 7a 72 be 43 cd 76 bf
       0.09611372 -0.12153803 -0.23679502 -0.96406955
000060 03 8f 5d bd e6 53 ba 3e 97 ad 0a 3e 79 79 54 3f
       -0.054091465 0.36392134 0.13542782 0.8299785
000070 ba f5 03 3e 50 b7 0d bf 24 1c 0c bc ca b2 6c be
       0.12886706 -0.5535784 -0.008551631 -0.23115078
000080 0a 65 fb 3d c8 48 42 be d8 27 e4 bd b5 2e 58 be
       0.12275131 -0.18973076 -0.11140412 -0.21111567
000090 67 3a 39 bf 8d 8e c3 3d 2f 14 e5 3d 38 e3 74 3e
       -0.7235474 0.09548674 0.1118549 0.23914802
0000a0 af 57 de 3e dc c4 17 3f 73 33 94 3f c5 5f 59 3f
       0.43426272 0.5928476 1.1578201 0.8491176
0000b0 3d ac 12 bf bc 07 f4 3c ba 82 44 3f 94 29 40 be
       -0.57294065 0.029788844 0.7676197 -0.18765861
0000c0 ca 16 c2 be e8 a8 07 be f5 9c e0 be eb ab 47 bf
       -0.37908012 -0.13248026 -0.4386975 -0.779967
0000d0 a2 68 47 3d 10 12 1d 3e 9b 6c 20 3f 46 c6 fe be
       0.04868377 0.15338922 0.6266572 -0.49760646
0000e0 6b a5 87 3f 90 65 d2 3d 26 9a f8 be a1 55 a6 be
       1.0597357 0.10273278 -0.48555106 -0.32487205
0000f0 ba 08 fd be 17 4d 0b bf d0 b8 1e bb 99 34 2a bf
       -0.4942072 -0.54414505 -0.0024219044 -0.6648651
000100 d5 3f 28 be 05 e0 6e 3e 3d 0e bf bf 57 db 8d 3d
       -0.164306 0.23327644 -1.492622 0.069266014
000110 8b b4 c2 be a8 b4 29 3f dc a6 37 3e 20 24 03 3f
       -0.38028368 0.66291285 0.17934746 0.51227
000120 6f c7 8d 3f 5a fd ae 3f 03 18 72 3e 3d 71 83 bc
       1.1076487 1.3671067 0.23641972 -0.016045207
000130 76 4e 7d 3f 36 be 8e bf 0d 39 00 3e 2c be dc be
       0.98947847 -1.1151798 0.12521763 -0.4311384
000140 5a 7b 27 bf c2 1e 17 3e 9e d2 cb bd 8a 52 b2 3e
       -0.65422595 0.14757827 -0.099522814 0.34828597
000150 68 94 82 3e 8d 70 54 3d 96 68 c0 bd 6b ba a3 3e
       0.2550385 0.05186515 -0.09394948 0.31978163
000160 6c 2c 35 3f d5 c3 85 3e c3 3b 45 3f 0e 4c a9 be
       0.7077091 0.2612597 0.77044314 -0.33065838
000170 b7 39 96 3e 1a c3 09 bf 76 4b db be ca 9c e8 be
       0.29340908 -0.53813326 -0.4283101 -0.4543212
000180 f5 37 19 3e fe 16 bb 3d f7 e5 22 bf e7 72 e6 be
       0.14962752 0.09135245 -0.6363215 -0.4500954
000190 e0 22 85 3f 63 73 88 3e d9 f7 19 3f 38 5b 8b be
       1.0401268 0.26650533 0.6014381 -0.27218032
0001a0 af bf 58 3f b9 aa 3c 3f 2a b3 b6 3e bb ac 88 be
       0.84667486 0.73698 0.35683566 -0.26694283
0001b0 a4 52 62 3f 65 f6 24 3f 2a 62 a4 3d f1 3f 37 bf
       0.8840735 0.6443847 0.08026536 -0.7158194
0001c0 56 ed 97 3f 99 df fb 3c c4 18 5a bd b4 4d 1e 3d
       1.1869304 0.030746268 -0.053246275 0.038648322
0001d0 72 61 2e be fe a9 6a be 52 3f 6f bd 1b 3d 17 3e
       -0.1702936 -0.2291641 -0.058409996 0.14769404
0001e0 7d 79 63 bf 7a 58 80 3e b3 63 3c bf 22 2d ff be
       -0.8885725 0.25067502 -0.7358963 -0.4983912
0001f0 d9 7d fd bc af 42 fa be 52 d8 44 3f 8f 26 68 3f
       -0.030943798 -0.48879 0.7689258 0.90683836
000200 2e 9e 87 3d 8d f4 3c 3f 6b 51 10 be 82 94 66 3e
       0.06621967 0.73810655 -0.14093558 0.22517589
000210 fa 3e e5 be c1 6d 37 bf 9f 3c 12 3f d3 5d 5c bf
       -0.4477461 -0.71651846 0.5712375 -0.86080664
000220 a4 06 3f bf df 59 7b bf 47 e5 01 3d 60 15 b4 3f
       -0.7461951 -0.9818401 0.031712797 1.4069023
000230 c2 63 26 be aa 49 b4 3e 97 ae 23 3f 80 13 a8 3e
       -0.16248992 0.3521245 0.6393828 0.32827377
000240 98 40 28 3e 0d d5 a5 be 77 59 d1 3e 54 41 cd be
       0.1643089 -0.32389107 0.4088857 -0.40088904
000250 fd b2 ab be 99 71 06 3f 59 94 a4 3e e4 f5 61 3f
       -0.33534995 0.52517086 0.3214443 0.88265824
000260 18 a4 a2 be f2 93 9f bf 02 75 ac 3e 89 95 9d 3e
       -0.3176582 -1.2467024 0.3368302 0.3077815
000270 b3 c4 8d be 5e 86 2f 3f dd 57 6e be 24 b0 d3 be
       -0.27689132 0.68564403 -0.23275705 -0.41345322
000280 61 19 ab bd 0b fa 72 3e 70 c4 83 3f 50 de 94 bf
       -0.0835445 0.23728196 1.0294323 -1.1630344
000290 ec d5 1d 3f 60 34 39 3f e2 3e 15 bf 92 0b 50 3f
       0.61654544 0.7234554 -0.58299077 0.81267655
0002a0 d3 23 8c 3b 84 8f 6c be 81 e5 94 bf fb 34 15 bf
       0.0042767315 -0.23101622 -1.1632539 -0.58283967
0002b0 b5 b8 cd be 46 b9 e2 3e 09 40 5c bf ab dd 0b 3f
       -0.40179983 0.44281977 -0.8603521 0.54635113
0002c0 7d 70 86 3f 02 ab 42 bf cd c7 39 3d ae 63 d5 3d
       1.0503079 -0.7604219 0.04535656 0.10419403
0002d0 e0 5b 08 bf ee 6f e3 3e 74 9c dc 3e 15 25 61 3e
       -0.5326519 0.44421333 0.43088114 0.21986802
0002e0 b1 2c 16 3f c6 fc 75 3f 7c 07 2b bf 32 2b de be
       0.58661944 0.96088827 -0.66808295 -0.4339233
0002f0 76 ee 59 bc 33 a3 ca 3e d5 17 8a bf e2 aa 25 3f
       -0.013301482 0.39577636 -1.0788523 0.6471387
000300 f7 f1 92 ba 4a 68 a6 bd ce 35 b9 3e df 9b f9 3d
       -0.0011211027 -0.0812536 0.36173862 0.12187933
000310 fe 79 3b bf 3e f9 b5 3e c2 69 ad bd b1 da 27 3f
       -0.7323302 0.3554172 -0.08467437 0.6556807
000320 8d f1 5c bf df 54 31 bf db d4 b7 3e 11 fb 93 be
       -0.8630608 -0.6927013 0.35904583 -0.28902486
000330 88 30 38 bf 91 c8 8f be 33 13 01 bf ff 6a 9d be
       -0.7194905 -0.28082708 -0.5041992 -0.30745694
000340 73 3d 6d bf 4d e8 e2 be cf e8 86 3f ae 47 72 3e
       -0.9267189 -0.44317856 1.0539798 0.23660156
000350 ce 6b 27 bd 4d a8 0e bf ff a3 d2 3d c5 17 13 bf
       -0.040874295 -0.55725557 0.10285186 -0.57458144
000360 25 63 8b be f8 76 85 3e 16 0f 74 3f a1 1e 34 bf
       -0.2722408 0.26067328 0.9533552 -0.70359236
000370 66 73 33 bf bf 2b 3c 3f ac 80 e7 3e 03 55 65 bf
       -0.7009796 0.7350425 0.45215356 -0.8958284
000380 95 ab 65 be 6e 4c 07 3e 98 ac 09 be 2a 13 26 be
       -0.22428735 0.1321275 -0.13444746 -0.16218248
000390 7a e7 f6 3e 79 7a 17 bf e1 e9 8d 3e 29 1c 31 bf
       0.48223478 -0.59171253 0.27717498 -0.69183594
0003a0 26 f3 6f 3f 45 68 50 3f c9 71 01 3f 0b 3c e3 bd
       0.9373039 0.814091 0.5056425 -0.11095437
0003b0 f5 ad 2f 3f ad b7 56 bf 28 59 48 bd 16 c0 d1 3f
       0.6862481 -0.83874017 -0.04891315 1.6386745
0003c0 94 a5 23 3e ef 1a 09 3f 86 14 5f bf 32 2a 3c bf
       0.15981132 0.5355672 -0.8714069 -0.73501885
0003d0 08 5d 94 3e 30 75 05 3f c6 4f 4d 3f 94 1e 2c bf
       0.28977227 0.5213194 0.8019985 -0.6723416
0003e0 84 f2 d3 3e c5 64 57 bf b9 56 50 3f 93 6a af 3e
       0.41395962 -0.8413814 0.8138233 0.34260997
0003f0 5f 45 88 3e 57 1c de be fc 9e 4b 3c 58 ff aa 3e
       0.26615426 -0.43380997 0.012428042 0.33397937

layer2.bias f4 [10]
000000 fc 6a e7 be 70 d0 99 3e b9 27 93 be 5b 7a 44 bf
       -0.4519881 0.30041838 -0.28741243 -0.767492
000010 72 67 0c 3e 63 fc 29 3f ac c3 b2 bc 39 cd 65 3d
       0.13711336 0.66400737 -0.02182182 0.05610392
000020 1d 9c f4 3d 6d 9a 8d 3e
       0.11943839 0.2765688
